best_gnn_model.pt (torch, 8968 bytes, 4 tensors)

conv1.bias f4 [64]
000000 55 41 42 bd 10 cb b2 ba ee 48 b1 bd 89 f4 82 3d
       -0.047425587 -0.001364084 -0.08656488 0.06394298
000010 3b 56 a5 bd e4 34 64 bd e9 0e 86 bd c3 b2 90 3c
       -0.08073088 -0.055714503 -0.06545813 0.017663365
000020 6f 71 ad bb 84 23 71 bd 48 9a 85 bd fd 4b 24 bd
       -0.0052930634 -0.05887176 -0.065235674 -0.04011153
000030 70 59 82 3d 9b 2c 20 bd 95 cf e1 bc d0 34 75 bd
       0.06364715 -0.03910504 -0.027564803 -0.05986482
000040 44 63 19 3c c2 51 b5 bd bb 1d ab 3b 8f 68 4d bd
       0.009362046 -0.08853485 0.00522205 -0.050148543
000050 01 55 10 bd 6d 18 24 bd e3 46 23 bd ad 45 84 bd
       -0.035237316 -0.040062357 -0.039862525 -0.06458602
000060 00 00 00 00 04 6b 36 bb 78 18 2f bd 78 ca 13 bd
       0.0 -0.0027834782 -0.042747945 -0.03608176
000070 bb 1b b0 3c 0f 80 67 bd 95 53 29 bd b9 92 43 bd
       0.021497598 -0.05651861 -0.041339476 -0.047747348
000080 ad c1 18 bd 0c 8e c7 bc 32 c6 75 3c 77 2b c1 bd
       -0.03729408 -0.024359725 0.015000867 -0.094321184
000090 92 63 7d bd 41 7c dc bd 3e 43 a6 bd ad c2 91 bd
       -0.061862536 -0.10765887 -0.08118294 -0.071172096
0000a0 b7 07 92 3c 77 10 2f bd f1 75 95 3d ea 43 02 ba
       0.017825944 -0.04274031 0.07297886 -0.00049692264
0000b0 47 80 2a bd ac 92 58 bd 9e d2 a7 bd 59 55 2f bd
       -0.04162624 -0.052874252 -0.08194469 -0.042806003
0000c0 84 ca 80 bd 34 bd 99 bd 6e e5 b0 bd b2 2c b0 bb
       -0.06288627 -0.07506791 -0.0863751 -0.005376422
0000d0 f3 4c 96 bd 91 82 5a 3d 9f 3d 82 bc 51 19 c0 bc
       -0.07338896 0.053347174 -0.015898524 -0.023449572
0000e0 b1 6d ad 3b 0c a4 6a 3c 71 51 54 bd b0 76 ea bb
       0.0052926173 0.014321338 -0.05183548 -0.007155262
0000f0 92 4f 85 bd ca 0c 29 3b 35 ec 8d bd f9 37 cb bd
       -0.065093175 0.0025794976 -0.069298185 -0.09922785

conv1.lin.weight f4 [64, 4]
000000 e8 c9 2a bd 3b 37 22 bd 63 ec 83 be e2 99 86 be
       -0.04169646 -0.039603453 -0.25766286 -0.26289278
000010 e0 12 82 bd 7d d6 13 bd fd 41 49 3d 84 d3 84 bc
       -0.06351256 -0.036093224 0.049135197 -0.01621414
000020 af 44 f8 bd ca ad f7 bc bd 14 10 3d f8 fc 7f bc
       -0.12122475 -0.030234236 0.035176028 -0.015624277
000030 9c dd fe bc 80 68 3a 3e e3 b8 a5 3d 7c ef 14 bc
       -0.031111531 0.18203926 0.08091905 -0.009090301
000040 7c 03 1c 3e 68 56 2f 3d 09 52 bb be 99 5d a8 bb
       0.15235704 0.042807013 -0.36586025 -0.005138111
000050 7d d9 b7 3d e7 4b a6 be 3d 27 17 be 34 98 f0 3d
       0.089770295 -0.32479784 -0.14761062 0.117477804
000060 fa 8a 0e bd 94 30 fb bd b1 f7 99 3d 5c 2e c9 bd
       -0.034800507 -0.12265125 0.075179465 -0.098232955
000070 b7 4e 06 bd 80 26 09 bc 85 a9 00 3d 8e 1e b9 3c
       -0.032789912 -0.0083709955 0.031411666 0.022597577
000080 98 b7 05 ba c1 c9 15 bb 12 0e b0 bb 8e 8f 0b bd
       -0.0005100905 -0.002285585 -0.005372771 -0.03407245
000090 c4 28 51 3e 72 d3 0d 3d da f9 2e be 50 5d 5a be
       0.20425707 0.034625478 -0.17087498 -0.21324658
0000a0 3d af 31 3d 5f c3 94 be c5 2e 6b 3e ac 32 86 bd
       0.04338001 -0.29055306 0.2296706 -0.06552634
0000b0 53 1b 1e bd 53 57 67 bd f0 28 7f bd b8 8b fb bd
       -0.038600277 -0.056479763 -0.0622949 -0.122825086
0000c0 4b 8d c1 bd c2 b8 50 3d 30 ca 0c 3e 70 3a 7e 3a
       -0.094507776 0.05095745 0.13749003 0.0009698039
0000d0 41 09 25 be ef e2 b0 3d d3 f2 40 3e 74 63 07 3c
       -0.16116811 0.08637034 0.1884263 0.008263458
0000e0 29 51 30 bb df 9d 45 3e 10 a3 e8 3d cb d7 41 be
       -0.0026903844 0.19298504 0.11359227 -0.18929975
0000f0 0a 9a 59 bd 83 bf 13 bd 40 05 6d be 00 fe 85 bd
       -0.05312542 -0.03607131 -0.23146534 -0.06542587
000100 a8 e3 81 be 72 31 d3 3c 79 4d 83 3e 6b 4c a8 bc
       -0.25369 0.025780413 0.25645044 -0.020544251
000110 c7 16 00 3e c6 df bd 3d 19 09 51 be 15 69 e7 3d
       0.12508689 0.09271197 -0.20413627 0.1129934
000120 e8 ca 9a 3b 94 1f cd 3c 24 19 ab bd 48 c0 2d be
       0.0047238953 0.025039472 -0.083544046 -0.1696788
000130 4e e7 b1 be fc 73 fe bc 35 cd da 3d a2 ea 80 3c
       -0.34746784 -0.031061165 0.106836714 0.015736882
000140 69 2c ff bd ae 61 49 be bb b8 48 3e b9 32 3b bd
       -0.124596424 -0.19666168 0.19601719 -0.04570267
000150 9d db 1f bd 1b 63 3b bc aa 43 33 be c6 49 1f be
       -0.0390278 -0.011437203 -0.1750628 -0.15555486
000160 89 75 0e 3c 01 3d 76 3e 5f f3 23 bd 51 e3 71 3e
       0.008695015 0.24046709 -0.04002702 0.2362187
000170 82 ba a7 bd 52 8a 72 be 66 75 c0 3d b9 c7 74 be
       -0.081898704 -0.23685578 0.09397392 -0.23904313
000180 ea 86 97 bc e6 59 9e bb 1f 9e d4 bb 54 3f e3 bc
       -0.01849695 -0.004832494 -0.006488576 -0.027740158
000190 d5 25 a1 bd fd 1b f8 3c d8 b0 82 bd 7d 26 b7 bc
       -0.07868544 0.030286783 -0.063813865 -0.02235722
0001a0 f6 24 57 3d a1 63 cb bd fb c7 2c bd 80 dc 9c be
       0.052525483 -0.09931112 -0.042182904 -0.30636978
0001b0 a6 81 3e 3e 76 cb 98 3d b3 ff 0c 3d 49 cd 86 be
       0.18604144 0.07460682 0.03442354 -0.26328495
0001c0 10 4b 59 3d 3e 76 1a be e1 c3 a0 bc 13 db 94 3e
       0.0530501 -0.15084168 -0.019624652 0.2907339
0001d0 46 bd 7d 3d 44 83 fe 3c 23 39 8b be 35 a6 0c 3e
       0.061948083 0.031068452 -0.2719203 0.13735278
0001e0 49 c4 64 3e a4 e7 ac 3d 8f be 53 3b 78 89 5f 3d
       0.22340502 0.084426194 0.0032309627 0.05457446
0001f0 5a 54 c3 bd fe c8 1c 3e 16 64 44 3e 2f c5 d8 bb
       -0.09537573 0.15311047 0.19178805 -0.006615303
000200 a1 0f 51 3e 03 ac 8f be fe 76 9d 3d f8 bb 35 3e
       0.20416118 -0.28060922 0.076887116 0.17747486
000210 82 a1 0a be 37 0e 9a 3c 0b 85 37 3e a5 b5 67 bd
       -0.13538173 0.018805606 0.17921846 -0.056569714
000220 7a fa ff bd 20 8c 93 bd 74 12 a6 3c 7d 63 af bc
       -0.124989465 -0.07204461 0.020272471 -0.021409744
000230 5b d9 12 3e 8d 6d 4b 3e 90 f3 b6 3d 25 3d 99 be
       0.14340727 0.19866009 0.089331746 -0.29929462
000240 cd 42 15 3d 36 95 1e 3e 2c 73 0b 3e 6d ea 93 bd
       0.03644066 0.15486607 0.13618153 -0.072224475
000250 bf de 3e 3e b9 d5 ed bc 7f 65 57 3d 6c 8a 08 be
       0.18639658 -0.029032575 0.05258703 -0.13334054
000260 ad 6d 4a 3d 36 58 bc be 7e 3d 8f be ac 64 87 be
       0.049421 -0.3678605 -0.27976602 -0.26443994
000270 72 4d ed 3d 1d db 2d be 4b 28 b4 3d 80 46 19 3e
       0.11587037 -0.16978116 0.08796748 0.149683
000280 e4 9c 5a be e6 b7 32 bd 4f 4e 3f 3e 2f a6 fb ba
       -0.21348912 -0.04363241 0.18682216 -0.0019199307
000290 97 a6 56 3e d6 76 5d be 34 6e b8 3d f1 b8 57 be
       0.20961986 -0.21627364 0.090053946 -0.21066643
0002a0 48 8e ef bd fe d8 c3 3c b8 73 fe 3d 5f f0 0a bd
       -0.1169706 0.02390718 0.12424415 -0.033920642
0002b0 46 06 84 bd 78 f4 d5 3b 1a a0 e2 bc 56 3f 53 3c
       -0.06446509 0.006529387 -0.027664233 0.012893518
0002c0 b7 c6 39 3e 7f 6a 49 be 85 67 ca ba 8c 02 89 be
       0.1814221 -0.19669531 -0.0015442228 -0.26759756
0002d0 ec ed 03 be 81 d7 46 3d df 7e 40 3e 84 e8 80 3d
       -0.12883729 0.048545364 0.18798397 0.06294349
0002e0 55 21 af 3d 87 98 50 be 1e 97 5d 3e 79 8b 92 bc
       0.085512795 -0.20370685 0.21639678 -0.017888771
0002f0 04 47 a2 be 00 f3 7e bb 88 8b d4 bc 4f d6 e6 bc
       -0.31694806 -0.0038902164 -0.02594544 -0.028178362
000300 24 b0 d6 3d 9c 29 9e 3c 99 a2 2c 3e 73 c7 39 be
       0.10482815 0.01930695 0.16858901 -0.1814249
000310 30 13 7b 3d 89 d7 40 3e 18 3b 34 3e 77 b1 7e be
       0.061297596 0.1883222 0.17600667 -0.24872385
000320 da 6f b9 3d 5e ab bd be 94 f6 0b 3e 54 79 37 be
       0.09054537 -0.37044805 0.13668281 -0.17917377
000330 88 75 f0 3c 10 81 68 3e bb 07 be 3d c1 cd fe 3d
       0.029352918 0.22705483 0.09278818 0.12441588
000340 b4 af de bd 27 e1 66 bd 70 97 21 3e 2e aa 34 be
       -0.108733565 -0.056367066 0.15780425 -0.17643043
000350 73 d8 25 bd 7f bb 2f 3d 52 78 c9 3d 94 d5 70 be
       -0.040489625 0.04290342 0.098374024 -0.23518974
000360 0b cb 96 bd 0d 6d d4 bd 3c c6 9f 3d 38 89 ac 3b
       -0.07362946 -0.10372362 0.07801482 0.005265381
000370 f8 06 e3 bc c2 3b 29 be ec ce 05 bd 93 11 fc bd
       -0.027713284 -0.16526702 -0.03266804 -0.123080395
000380 f7 af 1d 3c e4 7a ed 3c ab b1 83 bd f0 03 d0 39
       0.009624473 0.028989263 -0.06430372 0.00039675785
000390 e4 d1 1e be fa cd 33 bd 16 a0 db 3d 10 82 db bc
       -0.15509754 -0.043897606 0.10723893 -0.026795417
0003a0 fc 85 10 3e 34 10 9a 3c 01 d4 5d 3e 72 52 8f bd
       0.14113611 0.018806554 0.21662904 -0.06998147
0003b0 d4 3c a8 3c a0 48 e6 3d 44 37 9e 3d 18 ec 71 be
       0.020536818 0.11244321 0.07725385 -0.23625219
0003c0 19 64 ef 3b 13 77 3d 3e de 91 f5 3d 82 79 a9 be
       0.0073056337 0.18502454 0.119907126 -0.33100516
0003d0 ff 2e ab bb 49 2a 05 3d 81 fa 0e bd 77 b5 8f bd
       -0.005224108 0.03251103 -0.034906868 -0.070170335
0003e0 5c f2 52 3e 84 5e bd be ab 07 3a 3d 7a 66 42 be
       0.20600265 -0.36986172 0.04541747 -0.18984404
0003f0 36 c1 3c be 34 f3 04 3c f8 47 a2 3b ca 62 74 3d
       -0.18433079 0.008114625 0.004952427 0.059664525

conv2.bias f4 [21]
000000 5c f2 a3 3c e6 45 1f 3e 76 d2 f1 3d 7b 35 fc 3c
       0.020013027 0.15554008 0.1180772 0.03078722
000010 59 7d 8f 3d b2 50 44 bb d7 35 a3 3d c6 1f 17 3e
       0.0700633 -0.0029955325 0.079692535 0.14758214
000020 bb ca 4f 3d 81 99 77 3d f6 aa 46 3e cf b9 26 3d
       0.05073045 0.060449127 0.19401154 0.040704545
000030 04 86 02 3e f4 23 0d 3e 4d d0 dd 3d e3 06 22 3e
       0.12746435 0.13783246 0.10830746 0.1582294
000040 d4 76 b6 3d be 8a 91 bc 71 d6 18 3c 9d 4d ca 3d
       0.089093834 -0.017766353 0.009328471 0.09878085
000050 3f 72 43 3e
       0.1908655

conv2.lin.weight f4 [21, 64]
000000 4d 86 23 3e 8f 81 7c be 58 43 32 be df 2a 24 bd
       0.159692 -0.24658798 -0.17408502 -0.040079948
000010 48 41 fa bd 62 16 54 3e ac fb b4 3c 05 88 d2 bc
       -0.12219483 0.20711663 0.022092663 -0.025699625
000020 e6 7c 7a bb 72 66 f4 3d d3 17 29 be 8c 63 0a 3d
       -0.0038221418 0.119336024 -0.16512994 0.03378634
000030 96 5a 91 3d 44 61 43 bd 31 11 67 3e a8 f9 46 bc
       0.07097356 -0.04770018 0.22565152 -0.012144484
000040 45 9c b5 bd c1 bb f3 bc 3d 32 72 3e e0 18 5e be
       -0.08867697 -0.029752614 0.23651977 -0.21689177
000050 b9 10 c5 3d 59 9c 5a 3e a6 7c 40 be 12 96 a9 bd
       0.0962233 0.21348704 -0.1879755 -0.08280577
000060 1e 04 3d bb 67 8c 26 bd e4 4a e4 3b 34 84 5c be
       -0.0028841565 -0.04066124 0.0069669355 -0.21534806
000070 f0 ce e2 bc de e6 57 be 29 d4 f1 bd 33 71 b2 bd
       -0.027686566 -0.21084163 -0.118080445 -0.08712997
000080 96 74 41 3e fd 35 64 3e 66 b5 8c bc 67 e8 7b 3e
       0.1889213 0.2228622 -0.017176341 0.24600373
000090 97 6d 8c 3e 3c 84 30 3e 8d 72 82 3d 04 81 0c 3e
       0.2742736 0.17237943 0.06369505 0.1372109
0000a0 2e 90 32 bd b4 70 5a bd dc 91 0f 3d bc 0d df 3c
       -0.04359453 -0.05333014 0.03505121 0.027228229
0000b0 aa f4 24 3e 0f 77 13 be 1a a2 76 3d 83 a7 3b bd
       0.16108957 -0.14400886 0.060213186 -0.04581405
0000c0 6e 29 98 bd 00 1f 8f 3e 16 89 4f 3d f1 30 04 be
       -0.07429777 0.2795334 0.050667845 -0.12909295
0000d0 fe e2 a0 3d 06 af c4 bd 6a 8a e3 bd 0e b9 e0 bd
       0.07855795 -0.096036956 -0.11110385 -0.109727964
0000e0 18 b7 04 3d 58 66 66 3b b6 4e e9 bd fc d2 09 be
       0.032401174 0.0035156216 -0.11391966 -0.1345939
0000f0 27 dd 4a 3e e1 77 31 bd 7f eb 71 3e 5e f8 e2 bd
       0.19810925 -0.043327216 0.23624991 -0.110825285
000100 4a 34 0d 3e 23 11 0b 3e 02 f7 a0 bc 0d 0d 64 bd
       0.13789478 0.13580756 -0.019649033 -0.05567651
000110 a2 3a 43 3e ea 7a 87 bd d5 33 a0 bd 82 fa ba 3b
       0.19065335 -0.06615241 -0.07822386 0.0057061324
000120 ef e5 bd 3b 04 5e 9b 3d 47 58 e5 bc 96 ea 13 bb
       0.0057952325 0.075862914 -0.027996195 -0.0022570244
000130 7f cb ca 3c af 3c 13 3e 38 0d b3 bd 3a 50 3e 3d
       0.024755238 0.14378618 -0.08742756 0.04646323
000140 1a 4b 7b bc b3 be 15 bd cf cd 92 3d 2a 1f 40 3b
       -0.01533773 -0.036558818 0.07168161 0.002931545
000150 ce 68 60 3e 68 b9 44 3e 26 e9 f4 3c 14 05 24 3e
       0.2191498 0.19211352 0.02989633 0.16017562
000160 bc c8 28 bc d4 ef 05 bd 13 de 2a bd 84 01 a6 3c
       -0.010301765 -0.03269942 -0.041715693 0.020264395
000170 8c b3 c2 bb 1e ef 1c 3e 42 38 9a 3e f5 4b 3c 3d
       -0.005941814 0.15325591 0.30121046 0.045970876
000180 2e 8d 96 3b f9 46 2c 3d 5d 29 e4 bc b9 06 a2 3e
       0.0045944666 0.042059872 -0.027851755 0.31645754
000190 71 2a 34 3e e9 c3 35 3e 59 ff 7d 3d 1f 31 09 3e
       0.17594315 0.17750515 0.062011097 0.13397644
0001a0 fc 55 e6 bd 41 fd a3 3e 14 ba 6a bd 62 60 2a bb
       -0.11246869 0.32029155 -0.057306364 -0.002599739
0001b0 b4 55 47 3e 1f 30 ab 3e c9 23 80 3e d0 8c 89 3a
       0.19466287 0.3343515 0.25027302 0.0010494236
0001c0 c1 1c c8 bd df 32 6a bd ca 75 53 bd f1 56 9f 3e
       -0.09771109 -0.05717742 -0.051626004 0.3112102
0001d0 ec 3a 86 3e 08 18 be 3e 82 29 db bc ab f6 1c 3e
       0.2621683 0.3712771 -0.02675319 0.15328471
0001e0 14 3b 78 3c b9 02 3e bd e2 cd a0 3e 39 eb d0 3e
       0.015150804 -0.046389315 0.31407076 0.4080446
0001f0 18 5e 07 3e 4e f4 a7 3b da 23 07 3e 56 38 29 3d
       0.13219488 0.005125559 0.1319727 0.04131349
000200 6c 62 1f be 8f cf 4d bc b4 93 2a be 21 3f ef 3d
       -0.15564889 -0.012561693 -0.16657907 0.11681963
000210 9f 96 60 3e 19 08 d9 bc 01 99 6c 3e a1 ec 1a bb
       0.21932457 -0.02649312 0.23105241 -0.0023639577
000220 86 48 5c bc cb 70 ba 3e 2f f9 ee 3d 82 a1 0e 3e
       -0.013445025 0.3641418 0.11668622 0.13928798
000230 b7 03 ed 3d 47 20 99 3e 8c 3d 02 bd 0d 6c 0e be
       0.11572974 0.29907438 -0.031796977 -0.13908406
000240 91 63 a9 3e 54 12 03 3d 2a 9a a4 3d ba 3e 0c be
       0.33083776 0.0319999 0.08037217 -0.13695803
000250 4d 6a aa 3d fd 54 a4 bd bf 46 ab bd b9 68 27 be
       0.083210565 -0.08024023 -0.08363103 -0.16348542
000260 3c 10 72 bc 73 ee fb 3c 7b 18 15 3c ca 97 9c 3a
       -0.014774378 0.03075335 0.009100075 0.0011947092
000270 1e 82 98 3e be 3c 42 bd b4 9f 0f 39 00 93 94 3e
       0.29786772 -0.04742121 0.00013697037 0.29018402
000280 cb fc 23 3e 45 dd 89 3d 65 8c 53 bc 43 0b 15 be
       0.16014402 0.06731657 -0.012911891 -0.14555077
000290 0b da 15 be 4f 5f af 3e 08 4f a4 3e c8 ef 8b 3e
       -0.14633958 0.34252402 0.32091546 0.27331376
0002a0 c6 61 7b bd 8f ba bf bb 13 e0 cd 3d 78 83 41 3b
       -0.06137254 -0.005851097 0.100525044 0.0029527824
0002b0 ac 61 2f bd e8 82 80 3e 9b 7b 45 3e f0 c8 df 3c
       -0.042817757 0.25099874 0.19285433 0.027317494
0002c0 11 51 d0 bd c0 5f 1f bd c6 45 08 bd 16 a1 1f 3e
       -0.10171712 -0.038909674 -0.033269666 0.15588793
0002d0 4a 87 8b 3e d8 8b f8 3d c1 c6 bb 3c e6 20 78 3e
       0.27251655 0.12136048 0.022921922 0.242313
0002e0 22 35 b6 bc ca f6 12 be a3 48 57 3e 28 00 be 3e
       -0.022242133 -0.14351955 0.21023802 0.37109494
0002f0 70 71 5a 3e 6f 20 8f bb 21 53 e7 3d 34 9f 82 3d
       0.21332335 -0.00436788 0.112951525 0.06378022
000300 30 fa 48 be 1c c2 89 3e eb 80 52 3e 90 60 89 3d
       -0.19626689 0.26905906 0.20556991 0.06707871
000310 0f e3 8b 3c 15 40 53 bd 86 c0 93 3e b1 65 52 3e
       0.017076043 -0.051574785 0.2885782 0.20546605
000320 b6 53 71 bc ed 03 58 3e d5 1c 78 3e b4 95 4b 3e
       -0.014729431 0.21095248 0.24229749 0.19881326
000330 1e fa 4e 3e 04 de b9 bc e2 2f 55 3e 02 0a d3 3d
       0.202126 -0.022688873 0.20819047 0.10304643
000340 b2 2a 35 3e 04 4d 6a 3c 98 b6 0e 3e 81 ae 47 3d
       0.17692068 0.0143005885 0.13936841 0.048750404
000350 9a 4c 11 3c 58 96 54 3e 2c 91 33 3c 57 85 07 3d
       0.008868361 0.20760477 0.010959905 0.033086147
000360 09 0e 8f 3c df f9 48 3c a6 35 3a 3e 72 36 b6 3d
       0.017462747 0.012266605 0.18184528 0.08897103
000370 e4 2e 6f bd dd 5b 5e be 90 fb 56 3e 28 b2 93 3d
       -0.058394328 -0.2171473 0.20994401 0.07211715
000380 17 69 0d 3e 07 07 15 be 76 67 c3 3d 40 c2 8d 3e
       0.1380962 -0.14553462 0.09541218 0.27687263
000390 61 69 5a be a6 79 7b 3d 9a 36 c6 3d fb 2f 64 3e
       -0.21329261 0.06139531 0.09678383 0.22283928
0003a0 07 f3 70 bc 58 31 ed bb 78 c9 08 be 44 6f 25 bd
       -0.01470638 -0.0072385482 -0.13358104 -0.040389314
0003b0 1e a6 23 be fb b7 1a be 9e 1b 84 3e 78 32 55 3e
       -0.15981337 -0.15109245 0.2580232 0.20820034
0003c0 31 c2 bb bc b6 6b 71 3d 23 b5 ea bd 84 65 0d be
       -0.022919746 0.05894061 -0.1146033 -0.13808256
0003d0 d3 5d 36 be 5f c2 16 3d ad 00 f0 3d 07 e4 ab bd
       -0.17809229 0.03680646 0.11718879 -0.08393102
0003e0 57 b7 f8 bc 88 b7 d7 ba be 70 69 be d9 17 1a bd
       -0.03036086 -0.0016457895 -0.22796914 -0.0376204
0003f0 13 32 38 bd ef 05 e5 bc 53 ee c7 bd 10 73 11 be
       -0.04496963 -0.02795693 -0.097622536 -0.14204049
