best_gnn_grouped.pt (torch, 5592 bytes, 4 tensors)

conv1.bias f4 [64]
0	0xbc37fb96	-0.011229416
1	0x3d837107	0.06418043
2	0xbc7f2e52	-0.0155750085
3	0x3dd07f82	0.1018057
4	0xbd426204	-0.047456756
5	0xbc5361e4	-0.012901757
6	0xbd48394a	-0.04888276
7	0x3a85bd21	0.001020346
8	0xbcd71afa	-0.02625798
9	0xbd962c28	-0.07332641
10	0x378d2110	1.6823906e-05
11	0xbc9b33aa	-0.018945534
12	0xbdd5700d	-0.104217626
13	0xbd39dec3	-0.045378458
14	0xbc6db9d2	-0.014509635
15	0xbd43d869	-0.047813807
16	0xbd166ea2	-0.0367266
17	0xbd914fba	-0.07095285
18	0xbcf6b45f	-0.030115305
19	0xbd671685	-0.05641796
20	0x3c14fa80	0.009092927
21	0xbd0828cb	-0.03324203
22	0xbca483ea	-0.020082433
23	0xbd042856	-0.03226503
24	0xbcff7b67	-0.031186773
25	0xbcad1515	-0.021128217
26	0xbcd35439	-0.025796996
27	0xbd48ca35	-0.049020965
28	0xbcd60995	-0.026127616
29	0xbce79e9c	-0.028273873
30	0xbb17af5f	-0.00231453
31	0xbc2f59ba	-0.010702545
32	0xbd1004ea	-0.035160936
33	0xbd33a6bb	-0.04386018
34	0xbce0399a	-0.027371217
35	0xbcc7d091	-0.024391444
36	0x3b9c887c	0.0047770124
37	0xbd1c7670	-0.03819889
38	0xbbe3779d	-0.0069417492
39	0x3cf707b0	0.030155033
40	0xbb819797	-0.0039548385
41	0xbd1bd806	-0.038047813
42	0xbc05b5d6	-0.008161029
43	0x3d0ad281	0.03389216
44	0xbdb0a644	-0.08625463
45	0xbcd565ca	-0.026049513
46	0xbdf21c4d	-0.11821804
47	0xbabda821	-0.0014469662
48	0xbc03b4b3	-0.0080386875
49	0x3c952b88	0.018209234
50	0xbbf350df	-0.007425412
51	0xbda1aee6	-0.07894687
52	0xbd3f2558	-0.046666473
53	0xbd55f433	-0.05223484
54	0xbd06bd2d	-0.032895256
55	0xbbec4476	-0.0072103096
56	0xbc770742	-0.015077414
57	0xbdda6b51	-0.10665
58	0xbd46fb53	-0.048579525
59	0xbc96fa8e	-0.01843002
60	0xbd13ac73	-0.036053132
61	0xbcdb68b7	-0.02678333
62	0x3c78d2d2	0.015186982
63	0x36ff1600	7.6021533e-06

conv1.lin.weight f4 [64, 6]
0	0x3e6df631	0.23238446
1	0x3da1cedf	0.07900786
2	0x3d02149b	0.031757932
3	0xbe8832ce	-0.2660126
4	0x3d52c1ec	0.05145447
5	0x3e2b165e	0.16707751
6	0xbe637ad3	-0.22214822
7	0x3bc84762	0.006112025
8	0x3dbc96f3	0.09208479
9	0xbbb9bbe4	-0.0056681503
10	0x3de759bd	0.11296413
11	0x3e747add	0.23874994
12	0x3df7fc1f	0.12108635
13	0x3e5117a8	0.2041918
14	0x3de9add2	0.11410107
15	0x3c3214e8	0.010869242
16	0xbe38db01	-0.18052293
17	0xbc8144f5	-0.015779952
18	0xbe302835	-0.17202838
19	0x3d81369d	0.06309245
20	0x3e1d1c55	0.15342839
21	0xbb6e739c	-0.0036384827
22	0x3e2726a5	0.16323335
23	0x3e8e1ac5	0.277548
24	0x3e0b0545	0.13576229
25	0xbe462436	-0.19349751
26	0xbe3ae6ea	-0.18252149
27	0x3e636f91	0.22210528
28	0xbe7c0dfd	-0.24614711
29	0xbe8643a5	-0.26223484
30	0xbdbe6e8d	-0.0929843
31	0x3a148822	0.00056660373
32	0xbd570a06	-0.052499793
33	0x3cd2871f	0.025699196
34	0x3afed114	0.0019440972
35	0xbd411821	-0.04714215
36	0xbd1090e2	-0.03529442
37	0x3e3d5272	0.18488482
38	0xbe8dada5	-0.27671543
39	0xbea32a5b	-0.31868252
40	0xbbeacb82	-0.0071653733
41	0x3d369126	0.044572018
42	0x3b724def	0.0036972722
43	0x3d2df54e	0.04247027
44	0xbbc8fd62	-0.006133721
45	0xbcb76870	-0.022388667
46	0xbd3de47e	-0.046360485
47	0xbd8b13cf	-0.067908876
48	0x3e84808b	0.2587932
49	0x3dace0b7	0.084412985
50	0xbdd6aeb6	-0.10482542
51	0xbdaef151	-0.08542121
52	0xbe1ec8b0	-0.15506244
53	0x3dd31684	0.10307029
54	0xbea2f24f	-0.31825492
55	0x3b0bc3cc	0.002132642
56	0xbe28324f	-0.16425441
57	0xbc969e93	-0.018386161
58	0xbd014998	-0.031564325
59	0x3dd14f53	0.10220208
60	0x3e797592	0.24361256
61	0x3e9a3bcf	0.30123755
62	0x3e28114b	0.16412847
63	0x3df63c62	0.12023236
64	0xbe8e704c	-0.2782005
65	0xbb3a57ba	-0.0028433637
66	0x3e294599	0.16530456
67	0xbe4d0fcc	-0.20025557
68	0x3d8a64bd	0.067574956
69	0xbdc76565	-0.09736136
70	0xbe4dbd8d	-0.20091839
71	0xbe8a0c5c	-0.26962554
72	0xbe78ef08	-0.24309933
73	0xbbee723e	-0.0072768023
74	0x3baf611d	0.005352153
75	0xbcc97841	-0.024593474
76	0xbd0d8bd9	-0.034557197
77	0x3d5127a8	0.05106321
78	0xbd2aaaa3	-0.041666638
79	0xbd498869	-0.049202356
80	0xbd734278	-0.05938956
81	0xbd883ce6	-0.066522405
82	0xbd4594a2	-0.04823745
83	0xbd603647	-0.054739263
84	0xbd3ab220	-0.04558003
85	0xbcd50af3	-0.026006198
86	0xbcf562d9	-0.02995436
87	0x3d578000	0.052612305
88	0xbc15bb6b	-0.009138922
89	0xbccef0c0	-0.025261283
90	0x3b65c585	0.0035060358
91	0xbc00adf6	-0.0078539755
92	0x3e24e9cc	0.16104811
93	0xbd99e363	-0.07514074
94	0xbe30bc67	-0.1725937
95	0x3dcb4c50	0.09926665
96	0x3e417fec	0.18896455
97	0xbe69a93f	-0.22818469
98	0xbdc43656	-0.09580676
99	0xbe9cc38f	-0.3061795
100	0xbe598fa2	-0.21246198
101	0xbe2d017f	-0.16895102
102	0xbd84993a	-0.06474538
103	0xbe352a70	-0.1769197
104	0xbe2bf16e	-0.16791317
105	0xbe942110	-0.28931475
106	0x3de06ef9	0.10958666
107	0x3ca9c3bd	0.020723218
108	0x3d33d376	0.043902837
109	0x3e6d1126	0.23151073
110	0x3d637e72	0.05554051
111	0xbe8e73d0	-0.27822733
112	0xbe6f20f0	-0.23352408
113	0x3e012e4d	0.12615319
114	0x3decfdce	0.11571847
115	0x3e3534db	0.17695944
116	0xbe08c4e5	-0.1335636
117	0xbded14fd	-0.11576269
118	0xbe97cc93	-0.29648265
119	0x3e080448	0.13282883
120	0xbe95cf70	-0.29259825
121	0x3c8b17ab	0.01697906
122	0x3c9231c5	0.017845998
123	0x3c6a69e3	0.014307472
124	0x3c1e51f7	0.009663097
125	0xbe14a71a	-0.14516869
126	0xbcfb2a2f	-0.030659763
127	0x3e87598b	0.26435503
128	0xbdbf600d	-0.09344492
129	0xbdf4dfeb	-0.119567715
130	0x3dbaabc0	0.0911479
131	0x3d835d5e	0.06414293
132	0xbc85ae7b	-0.01631855
133	0xbccd818c	-0.025086187
134	0xbd2d6aa4	-0.04233803
135	0xbd4a3900	-0.049370766
136	0xbd033e6c	-0.032041952
137	0xbcf13397	-0.029443545
138	0xbcd6912a	-0.026192266
139	0xbcd1b552	-0.025599156
140	0xbd59fa5a	-0.05321727
141	0xbdd703ab	-0.104987465
142	0xbd5f8667	-0.054571535
143	0xbd8af8a3	-0.06785705
144	0x3e3e1d12	0.18565777
145	0xbd4f805d	-0.050659526
146	0xbe994b5a	-0.299403
147	0x3dc5ef7a	0.09664817
148	0x3c573a6d	0.013136488
149	0xbe52e828	-0.20596373
150	0x3e91a8f5	0.28449216
151	0xbde67df3	-0.11254492
152	0x3e75f0b0	0.24017596
153	0xbd8016ce	-0.0625435
154	0xbe6c1ecc	-0.23058623
155	0x3d470300	0.048586845
156	0x3e1c2411	0.15248133
157	0xbc8216e7	-0.015880061
158	0x3d8914cd	0.066934206
159	0xbe26730f	-0.16254829
160	0x3ba68a89	0.0050824326
161	0xbcfd0383	-0.030885464
162	0x3e59d36b	0.21272056
163	0x3e153350	0.14570355
164	0xbe3e4c45	-0.18583782
165	0x3c8376a8	0.01604779
166	0x3e0c6342	0.13709739
167	0xbdf3dd28	-0.119074166
168	0x3e5f2b69	0.21793903
169	0xbe7d1cf5	-0.24718077
170	0x3e6dc88c	0.23221034
171	0xbe1ae0ff	-0.15124892
172	0xbe23fc0f	-0.16014121
173	0xbdbfb4aa	-0.09360631
174	0x3e29b9df	0.1657481
175	0x3d8df34e	0.06931172
176	0xbad0132d	-0.0015874855
177	0xbdc524b5	-0.09626142
178	0x3d6d4a8e	0.05793243
179	0xbdb0406a	-0.08606036
180	0x3e803822	0.25042826
181	0x3e1b28a8	0.15152228
182	0xbd7db1b8	-0.061937064
183	0x3bf0fb89	0.007354204
184	0x3e4770c4	0.1947661
185	0xbe377748	-0.17916596
186	0xbb1e7be1	-0.0024182724
187	0xbccb56d1	-0.02482167
188	0xbc898141	-0.016785266
189	0xbbb0b4b2	-0.0053926343
190	0xbdef7349	-0.11691911
191	0xbcb86a39	-0.022511588
192	0x3e2d3a3a	0.16916743
193	0x3d631c98	0.05544719
194	0x3e5fdfcd	0.21862717
195	0xbcf9cff9	-0.030494677
196	0xbe9309c6	-0.28718394
197	0xbb8b902d	-0.0042591305
198	0xbd2bf7a2	-0.041984208
199	0x3d39d690	0.04537064
200	0xbd20e959	-0.039285038
201	0xbd8827f6	-0.06648247
202	0x3c6c03e6	0.014405226
203	0xbe349e7e	-0.17638585
204	0x3e4c8c96	0.19975504
205	0x3e1534b2	0.14570883
206	0xbded2a33	-0.115803145
207	0xbd36ecb7	-0.044659343
208	0xbd95db94	-0.07317272
209	0xbe0e9ef1	-0.13927819
210	0xbcc83dc4	-0.024443515
211	0xbd10213a	-0.035187937
212	0xbcec5b76	-0.028852206
213	0xbd450a10	-0.0481053
214	0xbcbd629e	-0.023118313
215	0xbd0feae9	-0.035136137
216	0x3e22cf17	0.15899311
217	0x3cc117c9	0.023570912
218	0xbe457744	-0.19283777
219	0x3e613123	0.219914
220	0x3eafa846	0.3430807
221	0x3e22e162	0.15906289
222	0x3e474c31	0.19462658
223	0xbe99b7ca	-0.30023032
224	0xbdf8ce31	-0.12148703
225	0xbdf0d3bf	-0.11759137
226	0xbd89b707	-0.06724363
227	0x3cac403f	0.021026729
228	0xbe43b3b3	-0.19111519
229	0x3bd28b7b	0.006425319
230	0x3d81a68a	0.06330593
231	0xbb9a8734	-0.0047158245
232	0x3c914a60	0.01773566
233	0x3d744819	0.05963907
234	0xbd26b389	-0.04069856
235	0xbd7cba63	-0.06170119
236	0xbdd49d32	-0.10381545
237	0x3b8a5800	0.004221916
238	0x3ce51330	0.02796325
239	0x3e927374	0.2860371
240	0x3c3b66fa	0.011438126
241	0x3e14119f	0.14459847
242	0xbc975156	-0.018471401
243	0x3d187662	0.037222274
244	0x3dada130	0.0847801
245	0xbdaabfe4	-0.083373815
246	0xbd142063	-0.0361637
247	0xbd3a6d39	-0.04551432
248	0xbcc01da7	-0.02345164
249	0xbd22b793	-0.03972585
250	0x3af7ca81	0.0018904955
251	0xbdd46a74	-0.10371867
252	0x3d92fbdf	0.07176947
253	0xbe0a0b57	-0.13480888
254	0xbd8894ff	-0.06669044
255	0x3d9125c5	0.07087282

conv2.bias f4 [6]
0	0x3d0924f1	0.033482496
1	0xbbdb5d06	-0.006694439
2	0x3d1fa35d	0.038974155
3	0x3d3ee918	0.046609014
4	0x3c981c0c	0.018568061
5	0x3cc1437d	0.023591751

conv2.lin.weight f4 [6, 64]
0	0xbe21408b	-0.15747277
1	0x3ea7d44f	0.32779166
2	0x3e871d22	0.26389414
3	0x3c331425	0.010930096
4	0x3e1935b5	0.14961894
5	0x3cf43eca	0.029815096
6	0x3d9f32f4	0.077733904
7	0xbcd31878	-0.025768504
8	0xbdf02d64	-0.117274076
9	0xbd66feb9	-0.056395266
10	0xbd1f51c5	-0.03889634
11	0x3dc2aed8	0.09506005
12	0x3e653829	0.22384705
13	0xbc4e6496	-0.012597224
14	0x3d8f9d93	0.07012477
15	0x3e18c1ef	0.1491773
16	0xbe62fcf6	-0.2216681
17	0xbe30761e	-0.17232558
18	0x3d8f01cf	0.06982767
19	0xbdb61dc2	-0.088923946
20	0xbdca13ac	-0.09867033
21	0xbce401b3	-0.027832842
22	0x3b891056	0.0041828556
23	0xbceedb28	-0.029157236
24	0x3e05f213	0.13080625
25	0xbdf5b673	-0.1199769
26	0x3e81796f	0.2528796
27	0x3e1bb5b6	0.15206036
28	0x3e7c8d88	0.24663365
29	0x3dc7dd84	0.097590476
30	0xbe73cd01	-0.23808672
31	0xbc9d2180	-0.019181013
32	0x3dd978e5	0.10618762
33	0x3e119e1a	0.14220467
34	0x3e003f04	0.12524039
35	0x3d85ba71	0.065297015
36	0xbe32a863	-0.17447047
37	0x3e1fb8c2	0.15597823
38	0xbc40bfc3	-0.01176447
39	0xbd8b01e2	-0.067874685
40	0x3d91ffd6	0.07128875
41	0x3dab3f6b	0.083617054
42	0xbd301ab2	-0.04299421
43	0x3ce0e0c2	0.027450923
44	0xbc2b69dd	-0.0104622515
45	0x3e3d5749	0.18490328
46	0x3d369331	0.044573966
47	0xbe925ed0	-0.2858796
48	0xbe8edf4c	-0.27904737
49	0xbe7f9f36	-0.24963078
50	0x3e615c3d	0.22007842
51	0x3e38126f	0.17975782
52	0x3e2796f5	0.1636618
53	0x3de02d62	0.10946156
54	0x3e10da75	0.14145835
55	0x3d45910c	0.04823403
56	0x3dc11207	0.094272666
57	0xbd35085b	-0.04419742
58	0xbe39c2da	-0.18140736
59	0x3e3e2cff	0.18571852
60	0x3c796ba0	0.015223414
61	0x3cdaf8f5	0.02673004
62	0x3e91a09f	0.28442857
63	0x3d32c71a	0.04364691
64	0xbe1809b4	-0.14847451
65	0x3e07fec8	0.13280785
66	0x3d591db6	0.05300685
67	0xbe76c65f	-0.2409911
68	0x3e8ba1c6	0.2727186
69	0x3dc521ff	0.09625625
70	0x3e50515a	0.20343533
71	0xbd19abbf	-0.037517305
72	0x3db9dd09	0.09075362
73	0xbbf3aa9c	-0.0074361097
74	0xbe6b4185	-0.22974212
75	0xbe10f6e0	-0.14156675
76	0x3e25fb2b	0.16209094
77	0xbcc2f57e	-0.0237987
78	0x3d3f3da4	0.046689644
79	0x3e924bef	0.28573558
80	0x3d6693dc	0.056293353
81	0x3ddce982	0.107867256
82	0xbd7ac44e	-0.061222367
83	0xbdeac60e	-0.11463557
84	0x3e58241d	0.21107526
85	0x3ca45ab5	0.020062784
86	0x3d3d3bca	0.046199597
87	0xbd867b8b	-0.06566533
88	0x3e47df8e	0.19518873
89	0x3e94191c	0.28925407
90	0x3e91e47d	0.28494635
91	0x3e22a0b1	0.15881611
92	0x3e934810	0.28765917
93	0x3d5f20cd	0.05447464
94	0xbe673d15	-0.22581895
95	0x3cab49e2	0.020909254
96	0x3d124dae	0.035718612
97	0x3d06a75e	0.032874458
98	0x3e93c178	0.28858542
99	0xbc88371a	-0.016627837
100	0xbdab0f69	-0.08352549
101	0x3dcbaf15	0.099455036
102	0x3debe52a	0.11518319
103	0xbe087c0b	-0.13328569
104	0xbd425825	-0.047447342
105	0x3d55fa74	0.052240804
106	0x3caece11	0.021338494
107	0xbd02179e	-0.031760804
108	0xbbfcea3b	-0.007718352
109	0xbda147a7	-0.07874995
110	0x3ad1abfa	0.0015996688
111	0xbe895354	-0.26821387
112	0xbe3f83a6	-0.18702564
113	0xbe47e624	-0.19521385
114	0xbd60fd3b	-0.054929
115	0xbe789c50	-0.24278378
116	0x3d88a038	0.06671184
117	0x3ddd774e	0.10813771
118	0x3dd370fd	0.10324285
119	0x397da620	0.00024189847
120	0xbe88ed67	-0.26743624
121	0x3e1fa63d	0.15590759
122	0x3d942a8d	0.072346784
123	0xbd83bd9c	-0.064326495
124	0x3e761786	0.24032411
125	0xbcd7042a	-0.026247103
126	0xbca9b687	-0.020716919
127	0xbe80a628	-0.25126767
128	0xbe3bec52	-0.18351868
129	0xbe4c5664	-0.1995483
130	0x3e7f90f0	0.24957633
131	0xbe09c9cb	-0.13455884
132	0xbe38c3a1	-0.18043377
133	0x3d706f40	0.058699846
134	0x3d4c0da0	0.04981768
135	0x3e1ae3fd	0.15126033
136	0xbe43bdc7	-0.19115363
137	0xbe3cce91	-0.18438174
138	0x3ea6fcf0	0.3261485
139	0x3e096ca8	0.13420355
140	0xbd8b74e3	-0.06809404
141	0x3cfec741	0.031100871
142	0xbe323a58	-0.17405069
143	0x3e23b087	0.15985309
144	0xbcd9dd2c	-0.02659472
145	0x3e838028	0.25683713
146	0x3e182add	0.14860101
147	0xbd55e15a	-0.052216865
148	0xbc14ad48	-0.009074517
149	0xbe02c58e	-0.12770674
150	0x3d0b8855	0.034065563
151	0xbcf73153	-0.030174887
152	0x3e76e601	0.24111177
153	0xbe333384	-0.1750012
154	0x3d5bf5ed	0.05370133
155	0xbdd8f155	-0.105929054
156	0xbdb9fe2f	-0.09081685
157	0x3e5ff2ef	0.21870016
158	0x3e792edc	0.24334282
159	0x3dac05ad	0.0839952
160	0x3d7b2fb0	0.061324775
161	0x3d5000b4	0.05078192
162	0xbdce0f87	-0.10061555
163	0x3d4056f3	0.04695792
164	0xbdfce56e	-0.12348448
165	0x3e3d771c	0.18502468
166	0xbe894197	-0.26807854
167	0x3e2ef974	0.17087346
168	0x3d86a4fb	0.06574436
169	0x3b1cb152	0.0023909402
170	0x3e51dfcc	0.20495528
171	0x3ce18449	0.027528899
172	0xbdada2a1	-0.084782846
173	0x3c3c932c	0.011509698
174	0xbcdd7e89	-0.027037876
175	0x3c04517f	0.008076071
176	0x3d7e6d46	0.06211593
177	0xbe67f911	-0.22653605
178	0x3d39677e	0.045264713
179	0x3e070dd9	0.13188876
180	0x3dc23278	0.094822824
181	0xbe24a538	-0.16078651
182	0x3d0cee4e	0.034406953
183	0x3db865d6	0.09003799
184	0x3e092311	0.13392283
185	0x3cdcedb6	0.026968818
186	0xbdbf0fb0	-0.09329164
187	0x3e47fa96	0.19529185
188	0x395d97e4	0.00021132786
189	0x39965970	0.00028676866
190	0x3c19830c	0.009369623
191	0x3e96fac4	0.29488194
192	0x3da64d0e	0.08120166
193	0x3e8d5e7c	0.27611148
194	0xbdb46785	-0.08808807
195	0x3e94eab8	0.29085326
196	0xbdde7ee4	-0.10864046
197	0xbbe9604a	-0.0071220743
198	0x3e6ece86	0.2332097
199	0x3ceb2a42	0.028706674
200	0x3dbae93f	0.091265194
201	0xbdeb1eae	-0.11480461
202	0xbe1d3d83	-0.15355496
203	0xbe47b8af	-0.19504045
204	0xbd507916	-0.050896727
205	0xbdc4b4d3	-0.09604802
206	0xbbd3a183	-0.0064584627
207	0x3dee5f9f	0.11639332
208	0xbd618058	-0.05505404
209	0x3cd2f43d	0.025751228
210	0x3cd7d262	0.026345436
211	0xbe5a6675	-0.21328147
212	0xbe1f4edf	-0.1555743
213	0xbbe6f8fe	-0.007048725
214	0x3bce21e0	0.0062906593
215	0x3d3efa0c	0.046625182
216	0x3e2f50f1	0.1712072
217	0xbcbf65e7	-0.02336402
218	0x3e7c0f1f	0.24615143
219	0x3e62f723	0.22164588
220	0xbd9c737f	-0.07639217
221	0x3e772f03	0.24139027
222	0x3d428064	0.047485724
223	0x3dad7b2a	0.08470757
224	0xbda773c9	-0.08176381
225	0x3d5ab57c	0.053395733
226	0x3eac7b37	0.33687755
227	0xbc8c3d10	-0.01711896
228	0x3e8ce309	0.27516964
229	0xbe626e48	-0.22112381
230	0xba03184c	-0.0005000874
231	0x3de0db5b	0.10979339
232	0x3e05ce8b	0.13067071
233	0x3d15946e	0.036518507
234	0xbe61e29a	-0.22059098
235	0xbc815121	-0.015785756
236	0xbe11da39	-0.14243402
237	0x3ea7694f	0.32697532
238	0xbd6533bb	-0.055957537
239	0xbe3289b6	-0.17435345
240	0xbe561446	-0.20906171
241	0x3ebde677	0.37089893
242	0xbe67e432	-0.22645643
243	0xbd2e7441	-0.042591337
244	0x3e746417	0.23866306
245	0xbdbc5b43	-0.09197094
246	0x3e8a04e3	0.26956853
247	0xbbd4d286	-0.006494823
248	0x3d148cfd	0.03626727
249	0xbdd7b599	-0.10532684
250	0xbd7028b6	-0.058632575
251	0x3e5294e5	0.20564611
252	0x3e2bf958	0.16794336
253	0x3c8a544f	0.016885905
254	0x3e759b77	0.23985086
255	0x3e83a4af	0.2571158
